…
[06/15 00:06:07] Re-training INFO: ckpt_path           : ./Evaluation/checkpoint/Retrain-mobile1-k4r-seed-0.pt
[06/15 00:06:07] Re-training INFO: dist_url            : tcp://127.0.0.1:23456
[06/15 00:06:07] Re-training INFO: world_size          : 8
[06/15 00:06:07] Re-training INFO: distributed         : True
[06/15 00:06:07] Re-training INFO: ['3x3_MBConv3', '3x3_MBConv6', '5x5_MBConv3', '5x5_MBConv6', '7x7_MBConv3', '7x7_MBConv6', 'Identity']
[06/15 00:06:14] Re-training INFO: # of Params : 3.938
[06/15 00:06:15] Re-training INFO: DistributedDataParallel(
  (module): CNN(
    (first_conv): Sequential(
      (0): Conv2d(3, 32, kernel_size=(3, 3), stride=(2, 2), padding=(1, 1), bias=False)
      (1): SyncBatchNorm(32, eps=1e-05, momentum=0.1, affine=True, track_running_stats=True)
      (2): ReLU6(inplace=True)
    )
    (first_block): InvertedResidual(
      (depth_conv): Sequential(
        (0): Conv2d(32, 32, kernel_size=(3, 3), stride=(1, 1), padding=(1, 1), groups=32, bias=False)
        (1): SyncBatchNorm(32, eps=1e-05, momentum=0.1, affine=True, track_running_stats=True)
        (2): ReLU6(inplace=True)
      )
      (point_linear): Sequential(
        (0): Conv2d(32, 16, kernel_size=(1, 1), stride=(1, 1), bias=False)
        (1): SyncBatchNorm(16, eps=1e-05, momentum=0.1, affine=True, track_running_stats=True)
      )
    )
    (blocks): ModuleList(
      (0): InvertedResidual(
        (inverted_bottleneck): Sequential(
          (0): Conv2d(16, 48, kernel_size=(1, 1), stride=(1, 1), bias=False)
          (1): SyncBatchNorm(48, eps=1e-05, momentum=0.1, affine=True, track_running_stats=True)
          (2): ReLU6(inplace=True)
        )
        (depth_conv): Sequential(
          (0): Conv2d(48, 48, kernel_size=(3, 3), stride=(2, 2), padding=(1, 1), groups=48, bias=False)
          (1): SyncBatchNorm(48, eps=1e-05, momentum=0.1, affine=True, track_running_stats=True)
          (2): ReLU6(inplace=True)
        )
        (point_linear): Sequential(
          (0): Conv2d(48, 32, kernel_size=(1, 1), stride=(1, 1), bias=False)
          (1): SyncBatchNorm(32, eps=1e-05, momentum=0.1, affine=True, track_running_stats=True)
        )
      )
      (1): InvertedResidual(
        (inverted_bottleneck): Sequential(
          (0): Conv2d(32, 96, kernel_size=(1, 1), stride=(1, 1), bias=False)
          (1): SyncBatchNorm(96, eps=1e-05, momentum=0.1, affine=True, track_running_stats=True)
          (2): ReLU6(inplace=True)
        )
        (depth_conv): Sequential(
          (0): Conv2d(96, 96, kernel_size=(5, 5), stride=(1, 1), padding=(2, 2), groups=96, bias=False)
          (1): SyncBatchNorm(96, eps=1e-05, momentum=0.1, affine=True, track_running_stats=True)
          (2): ReLU6(inplace=True)
        )
        (point_linear): Sequential(
          (0): Conv2d(96, 32, kernel_size=(1, 1), stride=(1, 1), bias=False)
          (1): SyncBatchNorm(32, eps=1e-05, momentum=0.1, affine=True, track_running_stats=True)
        )
      )
      (2): Identity()
      (3): InvertedResidual(
        (inverted_bottleneck): Sequential(
          (0): Conv2d(32, 96, kernel_size=(1, 1), stride=(1, 1), bias=False)
          (1): SyncBatchNorm(96, eps=1e-05, momentum=0.1, affine=True, track_running_stats=True)
          (2): ReLU6(inplace=True)
        )
        (depth_conv): Sequential(
          (0): Conv2d(96, 96, kernel_size=(3, 3), stride=(1, 1), padding=(1, 1), groups=96, bias=False)
          (1): SyncBatchNorm(96, eps=1e-05, momentum=0.1, affine=True, track_running_stats=True)
          (2): ReLU6(inplace=True)
        )
        (point_linear): Sequential(
          (0): Conv2d(96, 32, kernel_size=(1, 1), stride=(1, 1), bias=False)
          (1): SyncBatchNorm(32, eps=1e-05, momentum=0.1, affine=True, track_running_stats=True)
        )
      )
      (4): InvertedResidual(
        (inverted_bottleneck): Sequential(
          (0): Conv2d(32, 96, kernel_size=(1, 1), stride=(1, 1), bias=False)
          (1): SyncBatchNorm(96, eps=1e-05, momentum=0.1, affine=True, track_running_stats=True)
          (2): ReLU6(inplace=True)
        )
        (depth_conv): Sequential(
          (0): Conv2d(96, 96, kernel_size=(7, 7), stride=(2, 2), padding=(3, 3), groups=96, bias=False)
          (1): SyncBatchNorm(96, eps=1e-05, momentum=0.1, affine=True, track_running_stats=True)
          (2): ReLU6(inplace=True)
        )
        (point_linear): Sequential(
          (0): Conv2d(96, 40, kernel_size=(1, 1), stride=(1, 1), bias=False)
          (1): SyncBatchNorm(40, eps=1e-05, momentum=0.1, affine=True, track_running_stats=True)
        )
      )
      (5): InvertedResidual(
        (inverted_bottleneck): Sequential(
          (0): Conv2d(40, 120, kernel_size=(1, 1), stride=(1, 1), bias=False)
          (1): SyncBatchNorm(120, eps=1e-05, momentum=0.1, affine=True, track_running_stats=True)
          (2): ReLU6(inplace=True)
        )
        (depth_conv): Sequential(
          (0): Conv2d(120, 120, kernel_size=(3, 3), stride=(1, 1), padding=(1, 1), groups=120, bias=False)
          (1): SyncBatchNorm(120, eps=1e-05, momentum=0.1, affine=True, track_running_stats=True)
          (2): ReLU6(inplace=True)
        )
        (point_linear): Sequential(
          (0): Conv2d(120, 40, kernel_size=(1, 1), stride=(1, 1), bias=False)
          (1): SyncBatchNorm(40, eps=1e-05, momentum=0.1, affine=True, track_running_stats=True)
        )
      )
      (6): InvertedResidual(
        (inverted_bottleneck): Sequential(
          (0): Conv2d(40, 120, kernel_size=(1, 1), stride=(1, 1), bias=False)
          (1): SyncBatchNorm(120, eps=1e-05, momentum=0.1, affine=True, track_running_stats=True)
          (2): ReLU6(inplace=True)
        )
        (depth_conv): Sequential(
          (0): Conv2d(120, 120, kernel_size=(5, 5), stride=(1, 1), padding=(2, 2), groups=120, bias=False)
          (1): SyncBatchNorm(120, eps=1e-05, momentum=0.1, affine=True, track_running_stats=True)
          (2): ReLU6(inplace=True)
        )
        (point_linear): Sequential(
          (0): Conv2d(120, 40, kernel_size=(1, 1), stride=(1, 1), bias=False)
          (1): SyncBatchNorm(40, eps=1e-05, momentum=0.1, affine=True, track_running_stats=True)
        )
      )
      (7): InvertedResidual(
        (inverted_bottleneck): Sequential(
          (0): Conv2d(40, 120, kernel_size=(1, 1), stride=(1, 1), bias=False)
          (1): SyncBatchNorm(120, eps=1e-05, momentum=0.1, affine=True, track_running_stats=True)
          (2): ReLU6(inplace=True)
        )
        (depth_conv): Sequential(
          (0): Conv2d(120, 120, kernel_size=(5, 5), stride=(1, 1), padding=(2, 2), groups=120, bias=False)
          (1): SyncBatchNorm(120, eps=1e-05, momentum=0.1, affine=True, track_running_stats=True)
          (2): ReLU6(inplace=True)
        )
        (point_linear): Sequential(
          (0): Conv2d(120, 40, kernel_size=(1, 1), stride=(1, 1), bias=False)
          (1): SyncBatchNorm(40, eps=1e-05, momentum=0.1, affine=True, track_running_stats=True)
        )
      )
      (8): InvertedResidual(
        (inverted_bottleneck): Sequential(
          (0): Conv2d(40, 240, kernel_size=(1, 1), stride=(1, 1), bias=False)
          (1): SyncBatchNorm(240, eps=1e-05, momentum=0.1, affine=True, track_running_stats=True)
          (2): ReLU6(inplace=True)
        )
        (depth_conv): Sequential(
          (0): Conv2d(240, 240, kernel_size=(5, 5), stride=(2, 2), padding=(2, 2), groups=240, bias=False)
          (1): SyncBatchNorm(240, eps=1e-05, momentum=0.1, affine=True, track_running_stats=True)
          (2): ReLU6(inplace=True)
        )
        (point_linear): Sequential(
          (0): Conv2d(240, 80, kernel_size=(1, 1), stride=(1, 1), bias=False)
          (1): SyncBatchNorm(80, eps=1e-05, momentum=0.1, affine=True, track_running_stats=True)
        )
      )
      (9): InvertedResidual(
        (inverted_bottleneck): Sequential(
          (0): Conv2d(80, 240, kernel_size=(1, 1), stride=(1, 1), bias=False)
          (1): SyncBatchNorm(240, eps=1e-05, momentum=0.1, affine=True, track_running_stats=True)
          (2): ReLU6(inplace=True)
        )
        (depth_conv): Sequential(
          (0): Conv2d(240, 240, kernel_size=(7, 7), stride=(1, 1), padding=(3, 3), groups=240, bias=False)
          (1): SyncBatchNorm(240, eps=1e-05, momentum=0.1, affine=True, track_running_stats=True)
          (2): ReLU6(inplace=True)
        )
        (point_linear): Sequential(
          (0): Conv2d(240, 80, kernel_size=(1, 1), stride=(1, 1), bias=False)
          (1): SyncBatchNorm(80, eps=1e-05, momentum=0.1, affine=True, track_running_stats=True)
        )
      )
      (10): InvertedResidual(
        (inverted_bottleneck): Sequential(
          (0): Conv2d(80, 240, kernel_size=(1, 1), stride=(1, 1), bias=False)
          (1): SyncBatchNorm(240, eps=1e-05, momentum=0.1, affine=True, track_running_stats=True)
          (2): ReLU6(inplace=True)
        )
        (depth_conv): Sequential(
          (0): Conv2d(240, 240, kernel_size=(7, 7), stride=(1, 1), padding=(3, 3), groups=240, bias=False)
          (1): SyncBatchNorm(240, eps=1e-05, momentum=0.1, affine=True, track_running_stats=True)
          (2): ReLU6(inplace=True)
        )
        (point_linear): Sequential(
          (0): Conv2d(240, 80, kernel_size=(1, 1), stride=(1, 1), bias=False)
          (1): SyncBatchNorm(80, eps=1e-05, momentum=0.1, affine=True, track_running_stats=True)
        )
      )
      (11): Identity()
      (12): InvertedResidual(
        (inverted_bottleneck): Sequential(
          (0): Conv2d(80, 240, kernel_size=(1, 1), stride=(1, 1), bias=False)
          (1): SyncBatchNorm(240, eps=1e-05, momentum=0.1, affine=True, track_running_stats=True)
          (2): ReLU6(inplace=True)
        )
        (depth_conv): Sequential(
          (0): Conv2d(240, 240, kernel_size=(5, 5), stride=(1, 1), padding=(2, 2), groups=240, bias=False)
          (1): SyncBatchNorm(240, eps=1e-05, momentum=0.1, affine=True, track_running_stats=True)
          (2): ReLU6(inplace=True)
        )
        (point_linear): Sequential(
          (0): Conv2d(240, 96, kernel_size=(1, 1), stride=(1, 1), bias=False)
          (1): SyncBatchNorm(96, eps=1e-05, momentum=0.1, affine=True, track_running_stats=True)
        )
      )
      (13): InvertedResidual(
        (inverted_bottleneck): Sequential(
          (0): Conv2d(96, 288, kernel_size=(1, 1), stride=(1, 1), bias=False)
          (1): SyncBatchNorm(288, eps=1e-05, momentum=0.1, affine=True, track_running_stats=True)
          (2): ReLU6(inplace=True)
        )
        (depth_conv): Sequential(
          (0): Conv2d(288, 288, kernel_size=(3, 3), stride=(1, 1), padding=(1, 1), groups=288, bias=False)
          (1): SyncBatchNorm(288, eps=1e-05, momentum=0.1, affine=True, track_running_stats=True)
          (2): ReLU6(inplace=True)
        )
        (point_linear): Sequential(
          (0): Conv2d(288, 96, kernel_size=(1, 1), stride=(1, 1), bias=False)
          (1): SyncBatchNorm(96, eps=1e-05, momentum=0.1, affine=True, track_running_stats=True)
        )
      )
      (14): InvertedResidual(
        (inverted_bottleneck): Sequential(
          (0): Conv2d(96, 288, kernel_size=(1, 1), stride=(1, 1), bias=False)
          (1): SyncBatchNorm(288, eps=1e-05, momentum=0.1, affine=True, track_running_stats=True)
          (2): ReLU6(inplace=True)
        )
        (depth_conv): Sequential(
          (0): Conv2d(288, 288, kernel_size=(7, 7), stride=(1, 1), padding=(3, 3), groups=288, bias=False)
          (1): SyncBatchNorm(288, eps=1e-05, momentum=0.1, affine=True, track_running_stats=True)
          (2): ReLU6(inplace=True)
        )
        (point_linear): Sequential(
          (0): Conv2d(288, 96, kernel_size=(1, 1), stride=(1, 1), bias=False)
          (1): SyncBatchNorm(96, eps=1e-05, momentum=0.1, affine=True, track_running_stats=True)
        )
      )
      (15): InvertedResidual(
        (inverted_bottleneck): Sequential(
          (0): Conv2d(96, 288, kernel_size=(1, 1), stride=(1, 1), bias=False)
          (1): SyncBatchNorm(288, eps=1e-05, momentum=0.1, affine=True, track_running_stats=True)
          (2): ReLU6(inplace=True)
        )
        (depth_conv): Sequential(
          (0): Conv2d(288, 288, kernel_size=(5, 5), stride=(1, 1), padding=(2, 2), groups=288, bias=False)
          (1): SyncBatchNorm(288, eps=1e-05, momentum=0.1, affine=True, track_running_stats=True)
          (2): ReLU6(inplace=True)
        )
        (point_linear): Sequential(
          (0): Conv2d(288, 96, kernel_size=(1, 1), stride=(1, 1), bias=False)
          (1): SyncBatchNorm(96, eps=1e-05, momentum=0.1, affine=True, track_running_stats=True)
        )
      )
      (16): InvertedResidual(
        (inverted_bottleneck): Sequential(
          (0): Conv2d(96, 576, kernel_size=(1, 1), stride=(1, 1), bias=False)
          (1): SyncBatchNorm(576, eps=1e-05, momentum=0.1, affine=True, track_running_stats=True)
          (2): ReLU6(inplace=True)
        )
        (depth_conv): Sequential(
          (0): Conv2d(576, 576, kernel_size=(7, 7), stride=(2, 2), padding=(3, 3), groups=576, bias=False)
          (1): SyncBatchNorm(576, eps=1e-05, momentum=0.1, affine=True, track_running_stats=True)
          (2): ReLU6(inplace=True)
        )
        (point_linear): Sequential(
          (0): Conv2d(576, 192, kernel_size=(1, 1), stride=(1, 1), bias=False)
          (1): SyncBatchNorm(192, eps=1e-05, momentum=0.1, affine=True, track_running_stats=True)
        )
      )
      (17): InvertedResidual(
        (inverted_bottleneck): Sequential(
          (0): Conv2d(192, 1152, kernel_size=(1, 1), stride=(1, 1), bias=False)
          (1): SyncBatchNorm(1152, eps=1e-05, momentum=0.1, affine=True, track_running_stats=True)
          (2): ReLU6(inplace=True)
        )
        (depth_conv): Sequential(
          (0): Conv2d(1152, 1152, kernel_size=(5, 5), stride=(1, 1), padding=(2, 2), groups=1152, bias=False)
          (1): SyncBatchNorm(1152, eps=1e-05, momentum=0.1, affine=True, track_running_stats=True)
          (2): ReLU6(inplace=True)
        )
        (point_linear): Sequential(
          (0): Conv2d(1152, 192, kernel_size=(1, 1), stride=(1, 1), bias=False)
          (1): SyncBatchNorm(192, eps=1e-05, momentum=0.1, affine=True, track_running_stats=True)
        )
      )
      (18): InvertedResidual(
        (inverted_bottleneck): Sequential(
          (0): Conv2d(192, 576, kernel_size=(1, 1), stride=(1, 1), bias=False)
          (1): SyncBatchNorm(576, eps=1e-05, momentum=0.1, affine=True, track_running_stats=True)
          (2): ReLU6(inplace=True)
        )
        (depth_conv): Sequential(
          (0): Conv2d(576, 576, kernel_size=(5, 5), stride=(1, 1), padding=(2, 2), groups=576, bias=False)
          (1): SyncBatchNorm(576, eps=1e-05, momentum=0.1, affine=True, track_running_stats=True)
          (2): ReLU6(inplace=True)
        )
        (point_linear): Sequential(
          (0): Conv2d(576, 192, kernel_size=(1, 1), stride=(1, 1), bias=False)
          (1): SyncBatchNorm(192, eps=1e-05, momentum=0.1, affine=True, track_running_stats=True)
        )
      )
      (19): InvertedResidual(
        (inverted_bottleneck): Sequential(
          (0): Conv2d(192, 576, kernel_size=(1, 1), stride=(1, 1), bias=False)
          (1): SyncBatchNorm(576, eps=1e-05, momentum=0.1, affine=True, track_running_stats=True)
          (2): ReLU6(inplace=True)
        )
        (depth_conv): Sequential(
          (0): Conv2d(576, 576, kernel_size=(3, 3), stride=(1, 1), padding=(1, 1), groups=576, bias=False)
          (1): SyncBatchNorm(576, eps=1e-05, momentum=0.1, affine=True, track_running_stats=True)
          (2): ReLU6(inplace=True)
        )
        (point_linear): Sequential(
          (0): Conv2d(576, 192, kernel_size=(1, 1), stride=(1, 1), bias=False)
          (1): SyncBatchNorm(192, eps=1e-05, momentum=0.1, affine=True, track_running_stats=True)
        )
      )
      (20): InvertedResidual(
        (inverted_bottleneck): Sequential(
          (0): Conv2d(192, 1152, kernel_size=(1, 1), stride=(1, 1), bias=False)
          (1): SyncBatchNorm(1152, eps=1e-05, momentum=0.1, affine=True, track_running_stats=True)
          (2): ReLU6(inplace=True)
        )
        (depth_conv): Sequential(
          (0): Conv2d(1152, 1152, kernel_size=(7, 7), stride=(1, 1), padding=(3, 3), groups=1152, bias=False)
          (1): SyncBatchNorm(1152, eps=1e-05, momentum=0.1, affine=True, track_running_stats=True)
          (2): ReLU6(inplace=True)
        )
        (point_linear): Sequential(
          (0): Conv2d(1152, 320, kernel_size=(1, 1), stride=(1, 1), bias=False)
          (1): SyncBatchNorm(320, eps=1e-05, momentum=0.1, affine=True, track_running_stats=True)
        )
      )
    )
    (feature_mix_layer): Sequential(
      (0): Conv2d(320, 1280, kernel_size=(1, 1), stride=(1, 1), bias=False)
      (1): SyncBatchNorm(1280, eps=1e-05, momentum=0.1, affine=True, track_running_stats=True)
      (2): ReLU6(inplace=True)
    )
    (avgpool): AvgPool2d(kernel_size=7, stride=7, padding=0)
    (classifier): Sequential(
      (0): Dropout(p=0.2, inplace=False)
      (1): Linear(in_features=1280, out_features=1000, bias=True)
    )
  )
)
[06/15 00:06:20] Re-training INFO: Trainset Size: 1281167
[06/15 00:06:20] Re-training INFO: Validset Size:   50000
[06/15 00:06:20] Re-training INFO: Compose(
    RandomResizedCrop(size=(224, 224), scale=(0.08, 1.0), ratio=(0.75, 1.3333), interpolation=bilinear)
    RandomHorizontalFlip(p=0.5)
    ColorJitter(brightness=[0.6, 1.4], contrast=[0.6, 1.4], saturation=[0.6, 1.4], hue=[-0.1, 0.1])
…
